models/qnn_model .pth (torch, 2291 bytes, 4 tensors)

qnn.weight f4 [8]
000000 8a 81 50 3f 33 2d 5c 3f a6 88 91 be 32 4f 5e 3f
       0.8144766 0.8600647 -0.28424567 0.8683959
000010 95 0c 2d be a5 c5 80 3e c3 e4 df be 6b 85 09 3f
       -0.16899331 0.2515079 -0.4372922 0.53719205

qnn._weights f4 [8]
000000 8a 81 50 3f 33 2d 5c 3f a6 88 91 be 32 4f 5e 3f
       0.8144766 0.8600647 -0.28424567 0.8683959
000010 95 0c 2d be a5 c5 80 3e c3 e4 df be 6b 85 09 3f
       -0.16899331 0.2515079 -0.4372922 0.53719205

classifier.weight f4 [7, 1]
000000 18 f0 54 3f fe 37 36 bf 1b b4 51 3f cb dd 72 3e
       0.83178854 -0.7117919 0.81915444 0.2371742
000010 a9 68 30 3f f0 6d af 3d 3d 37 08 3f
       0.689097 0.08565891 0.53209287

classifier.bias f4 [7]
000000 bf 80 bb bd 19 92 38 3f 5b 3d ca 3d 97 76 d5 be
       -0.09155416 0.7209793 0.09874984 -0.4169204
000010 f2 12 52 3e 48 57 d2 be 10 bb 8a bd
       0.2051504 -0.41082215 -0.067739606
